public/models/skin-classifier/model.tflite (tflite, 410912 bytes, 10 tensors)

arith.constant f4 [64]
00000000: f4c1 cb3a 65a6 b1bc 32a7 1b3d 5bc5 86bc
00000010: f3c5 bd3b a527 3cbc b567 313c 23dd 43bb
00000020: 0eff af3c 6660 0a3d a2ca fd3c 7bda 6cbb
00000030: a232 383b 5f2e 09bb 1858 033d c3c2 aa3c
00000040: a1d4 ba3c 0021 a0bc 47b7 e5bb 96d1 e9bb
00000050: bcf5 93bc 9ce9 acbc 2a8d 5cbc 1d23 99ba
00000060: f3aa 1f3d 5935 53bc 879e d43c e37e b7bb
00000070: 0e31 03bc be71 3ebc b8a7 a2ba 9887 3ebb
00000080: 7d2b d53b 97a1 133d 1743 0b3d 72e9 94bc
00000090: e793 e73a ffd8 bcbc a306 a3bc 9722 bf3c
000000a0: 1f74 7abc 2bc7 7fbc 7856 9dbc 79cd d8ba
000000b0: 9ac7 0fbc 8aac 5e3c 8f1d 24bc 7a16 f4bb
000000c0: faae ac3c 9747 5abc b3d7 e43b 758e 2ebc
000000d0: 03e0 5b3c dfff 9fbc 8c63 1abc b190 153d
000000e0: 94a3 3c3d 12c1 b2bc a51d 52bc eae3 1dbb
000000f0: ad4c 97bc bbd8 74bc 0e8e 97ba 6706 fabb
0.0015545473 -0.021685788 0.038001247 -0.016451528 0.0057914197 -0.011484061 0.010827948 -0.0029886446
0.021483924 0.03378334 0.030980412 -0.0036140967 0.0028106351 -0.002093218 0.032066435 0.020844823
0.022806467 -0.019546986 -0.0070103738 -0.0071355803 -0.018061511 -0.021107487 -0.0134613905 -0.0011683438
0.03898139 -0.012891137 0.025954498 -0.005599843 -0.008007301 -0.011623798 -0.0012409603 -0.002907252
0.0065054283 0.036042776 0.03399953 -0.018177722 0.001766798 -0.02305269 -0.019900626 0.023331923
-0.0152864745 -0.01561145 -0.01920627 -0.0016540728 -0.008775616 0.013590941 -0.010016813 -0.0074489685
0.02107953 -0.013322732 0.006983721 -0.010654082 0.013420108 -0.019531189 -0.009423148 0.03651494
0.046054438 -0.021820579 -0.012824451 -0.0024092146 -0.018469179 -0.014944251 -0.0011562721 -0.0076301578

arith.constant1 f4 [128]
00000000: 3d5b 09bc 86d0 40bc 25a4 f9bb f203 bfbb
00000010: 298a 37bb 5d53 a038 f2e5 2abc 1a40 003c
00000020: 8879 5d3c d290 0ebc c5ba 34bc a951 28bc
00000030: a465 673c 97b1 03bc 8f3a 743c bb79 cabb
00000040: 0626 313b 5812 8abb c39d debb 6f37 a3bb
00000050: 58c7 8f3a 42ec 69bb 2db4 eabb 8e33 bcbb
00000060: 95ed c73b b70f cdbb 5af8 febb eb72 8b3c
00000070: 0f2d 473c 17c3 f83a 3d88 09bc 05aa bd3c
00000080: 1355 953c 7bc3 453c 4188 c13c 3948 b5bb
00000090: 3b60 9e3c a16a 5ebb 33ed 753c a3a9 3d3c
000000a0: 491e a8bb b53c 06bc 45de 3ebc 1799 e5bb
000000b0: 8100 e2bb e4ea 78bc dcab 49bc 71c1 ecba
000000c0: d1a8 eebb 975c acba cc72 4cbc 61f3 2cbc
000000d0: 1918 dabb 2f69 3cbc 8e34 04bc 779d d03b
000000e0: 4118 52bb a97f 46b9 68bb 493c 121d c6bb
000000f0: 7b36 223c ef67 a93c aaf4 2cbc 70e3 dabb
00000100: 2fdc 11bc 1748 c1bb 1c33 c1ba 5df9 163c
00000110: 2f16 1abc a63e 4d3c 49a5 20bc fa15 02bc
00000120: d5fb aebb 9cc4 06bb 0ba5 a53b 687f 003c
00000130: a8f7 08bc 00e5 39bc 912e 93bb 44c0 143c
00000140: 36cd 203b 29e6 0f3c b6f6 aabb 2442 13bc
00000150: e665 e93b e080 0dbc 193c 0cbc 8439 af3c
00000160: 53df 623b 5749 edbb ca50 d53b 2a73 39bc
00000170: a0d7 d2bb 9fed 573c 4e57 8d3b 435a 343c
00000180: 74f5 e8bb 5ad6 e7bb b2c0 10bc 1b52 15bc
00000190: 109b 1cbc 0089 673c 3fee 0cbc 84ff 51bb
000001a0: 4d26 903a f870 143c 8e17 94bb d85f 96bb
000001b0: f030 8b3c 07b8 89bb 5d37 95bb 2989 a63c
000001c0: a0c9 103c 76b1 fdbb 0102 543c 375f eb3b
000001d0: 8c89 2e3c e296 00bc 27cc 4dbb 7976 0bbc
000001e0: 5135 f63c a725 1f3c 17bd 10bc eed1 bb3c
000001f0: 40fc cbbb 0e16 b3bb b614 9b3c 6c8b 813c
-0.008383569 -0.011768466 -0.0076184445 -0.0058293277 -0.0028005934 7.644922e-05 -0.0104308 0.007827783
0.013517745 -0.00870152 -0.011030857 -0.010273376 0.014123354 -0.008037946 0.01490654 -0.006179062
0.002703072 -0.0042136125 -0.006793709 -0.0049809734 0.0010969443 -0.00356938 -0.007162592 -0.0057434505
0.00610132 -0.006257977 -0.0077810707 0.01702257 0.012156739 0.001897904 -0.008394298 0.02315236
0.018229043 0.012070532 0.023624541 -0.0055322913 0.019332996 -0.0033938067 0.015010166 0.011576089
-0.0051305634 -0.008193185 -0.011649673 -0.007006775 -0.0068970327 -0.015192721 -0.012309041 -0.0018063021
-0.007283308 -0.0013150153 -0.012478542 -0.010556073 -0.0066557047 -0.011499687 -0.008069171 0.0063664275
-0.0032057913 -0.00018930309 0.012312748 -0.006045946 0.0099006845 0.020679442 -0.010556379 -0.0066799447
-0.0089025935 -0.0058984864 -0.0014739963 0.009214726 -0.009404703 0.012527144 -0.009805032 -0.00793981
-0.0053400793 -0.0020563966 0.005055075 0.007842876 -0.008359827 -0.011346102 -0.004491635 0.009079043
0.0024536378 0.008782902 -0.0052173985 -0.008987937 0.007122743 -0.008636683 -0.00855925 0.02138973
0.0034617975 -0.007241409 0.006509875 -0.011318961 -0.006434396 0.013179212 0.004313386 0.011007848
-0.0071093384 -0.0070751132 -0.008835005 -0.009113814 -0.009558454 0.014131784 -0.008601724 -0.0032043168
0.0010997743 0.009060137 -0.0045194095 -0.004589062 0.016991109 -0.004202846 -0.004553719 0.020329075
0.008837134 -0.0077421023 0.012939931 0.0071829814 0.010652911 -0.007848473 -0.0031402202 -0.008512133
0.03005472 0.009713567 -0.008834145 0.02292725 -0.006225139 -0.0054652756 0.018930774 0.015813552

arith.constant2 f4 [64]
00000000: 8243 0d3b 07fa 483c dc6d 3e3c 2a9b a03a
00000010: 94db 863b 5bdb 6c3c 5c83 1f3c 8688 90ba
00000020: 1c02 8fb9 ffd2 5f3c 68c9 cf3b acbf 86bb
00000030: 5316 4dba 565d 933b 11dc b43a d3b9 b7bb
00000040: d176 faba 9bbd b63b 700c ed3b 1949 7e3b
00000050: 8026 20ba 2c86 543a 4312 0cbc 5040 ac3b
00000060: 6950 9fbb a0f1 153b 22bb 03bc 124b 013c
00000070: 435f 243b 1e6c 0abc 839e 33bc 07c7 5c3c
00000080: 8b3a 083c d9d9 efba e172 4ebb a2dc 79bb
00000090: f154 843a 5f69 8ebb 4966 763b 497f e63a
000000a0: 22d5 6fba f681 0fbb f988 54bc 8356 8ebb
000000b0: 5c1b a5ba 3e50 d03b 7124 253c fc45 bfbb
000000c0: 799f 34bc e78e 60bb 4a6e 73bb e101 743b
000000d0: 5b7c 4c3b 2aef 0fbb 7fb7 efbb 87d0 6a3c
000000e0: 6f4d 2fbc abc7 b3bb 4a54 8038 0520 1b3c
000000f0: f9ec fc3b 68c5 90bb 4556 30bc ae11 90b9
0.002155513 0.012266642 0.011622872 0.0012253274 0.004115531 0.014456595 0.009735908 -0.0011027015
-0.00027276657 0.013661145 0.006341148 -0.0041122045 -0.0007823456 0.0044972105 0.0013798495 -0.005606869
-0.0019108896 0.005576802 0.0072341487 0.0038800894 -0.00061092526 0.00081071514 -0.008549276 0.00525669
-0.0048618806 0.0022879615 -0.008040221 0.007891433 0.0025081194 -0.008448629 -0.010963085 0.013475186
0.008314739 -0.0018299177 -0.0031501579 -0.0038125892 0.0010096115 -0.0043460573 0.0037597588 0.0017585541
-0.0009148886 -0.002189753 -0.01297211 -0.004343809 -0.0012596655 0.006357222 0.010079489 -0.0058372
-0.011024349 -0.0034264864 -0.0037144595 0.0037232565 0.0031202051 -0.0021962621 -0.0073155756 0.014331943
-0.010699614 -0.0054864488 6.119216e-05 0.009468083 0.007718679 -0.004418064 -0.010762756 -0.00027478993

arith.constant3 f4 [4]
00000000: 5768 da3c a11b f03b d61f d9bc 85c3 dbbc
0.026661081 0.0073275124 -0.026504438 -0.02682663

arith.constant4 f4 [128, 3, 3, 64]
00000000: 7a3d 093d 014e 28bc b3b7 223d 463c 4ebd
00000010: 1f4e 62bc f51b 3b3d 0e40 203d b49b 1c3c
00000020: f6c2 50bd cade 623c 59fe ed39 75dc 4f3c
00000030: badd 053d 1abd 36ba ad38 58bd 0dcc 913c
00000040: 6bcc 223d d3cb 213d b59b 0dbd 9869 c6bc
00000050: 92a2 093d f015 563d 6498 03bd 8112 7ebc
00000060: 6a1b a93b 3f3d 243d 4c64 513d ee48 553b
00000070: a73c 593c 19ae ff3c a67d 60bc ddd5 773c
00000080: 6306 44bd a995 303d 3be3 aebb b8b5 c63c
00000090: 34fe 403c ee20 e03c 5a0d c03c 10e5 1bbd
000000a0: 5a89 e03b c2b0 b13c cbbf a5bb 3871 ae3c
000000b0: b791 7b3c 4f59 263c 8c72 b93a e0b7 84bd
000000c0: b674 cd3b f773 51bd cebf 083d c8a9 7b3c
000000d0: a81b 20bc 175d 673c 7322 3cbd f939 553b
000000e0: c0d5 ff3c d5ee b53c 531f 74bd e661 02bd
000000f0: c47b 4dbd 64d3 5abc f680 ddbc 9266 2c3d
00000100: 87ee e63c 4e24 a4bc 9440 e5bc 8f18 97bc
00000110: cf91 21bc eeab 49bd 20b2 7b3c 11bb 153b
00000120: 6e7b d7bb 97e9 c4bb af97 203d c17f 7dbd
00000130: b797 233d b274 8cbc 3c63 dcbc 822d 7fbd
00000140: 14de 293b 24d4 e53b bf08 84bd 463b a63c
00000150: ab33 2b3d 9861 79bd 1678 bdbc 2313 15bd
00000160: 6135 b0bc afbc 22bd cb21 d1bc 069e 87bd
00000170: 9335 793b ddeb 533c dc45 8dbc 7024 7bbd
00000180: acdb 29bd 3bf2 f0bc 2435 07bd caef 163d
00000190: a3d7 e43c 7665 923c d81a 7ebc 983a 163d
000001a0: 08cb a7bc 5411 a7bb 8e89 5abc 2f17 fdbc
000001b0: b250 74bd d60e 383d aa88 31bd 343a dcbb
000001c0: 6041 e5bc 6d62 4ebd 9206 88bd 00f5 19bd
000001d0: 5e1c cfbb 5d92 083d 3e42 383d 04e8 e53b
000001e0: c41b ff3c bde3 553d d403 25bd 8189 8bbc
000001f0: 7349 3fbd 29a6 d6bc 9293 1fbd fa59 043d
00000200: 2863 2f3d a9a8 203d 06f2 4dbd 6d34 363d
00000210: c45b 9fbc 3926 8a3c 4d74 85bd 6d19 453c
00000220: 4e38 31bd 49f2 57bd 6622 043d 6e95 b53c
00000230: a600 a6bc 3a2a 373d 1c78 ccbc 4f9f c0bc
00000240: 62c2 c5bc 45bb 07bd 3c35 17bb 960a 4cbd
00000250: c0fb 9f3c a1c4 ed3c 2e81 2bbd 42c4 cb3b
00000260: 610a b73c ee23 b7bb 5b0a 68bc a35e 64bd
00000270: ec0d ac3c bdb4 10bd 1897 523d 6e63 7abd
00000280: f6f8 4bbc b86b 9c3c 2f77 c3bc 999e 413d
00000290: 735c ef3b d03a 0f3d 2796 843c f53e 203a
000002a0: aa84 79bd a21d da3a 3cc1 19bd 2a1c 27bd
000002b0: 163e 20bd f9cd 71bc fbbc 763c 8aac 313d
000002c0: 50d9 31bd 4523 f53c a56f 33bd ff82 413c
000002d0: 02ab 51bc 9df4 1f3d ddff 3ebc a927 fabc
000002e0: bef0 a83c 4a66 82bd 4cb2 b03c 117c 2f3d
000002f0: da99 adbc 42fc 51bd edce abbc 4730 09bd
00000300: cb52 573b 2837 52bd bc83 ca3c 732a 23bb
00000310: 2009 29bd 0c0c 79bd 1658 3cbb b852 71bc
00000320: 3c26 1e3d ca0e 803c 67dc 6cbd 079d c2bc
00000330: 247a 89bd 1a3f 4e3c 678d 623c dfb3 80bd
00000340: 5114 6ebd 9f21 58bc f5f2 943c a0fd c23c
00000350: cc9c 2dbd 2f92 8fbc 1db6 20bd 1301 d63c
00000360: aa0b c4bc d74d 81bd 60be baba e9d1 75bc
00000370: 1083 a63c ea80 7fbd b217 fd3c 5c0f ad3c
00000380: ecb3 d5bc ce2f b13c 4adf aa3c cd58 6ebd
00000390: 063a b63c d35e 593b 5137 b93c a64c 01bd
000003a0: 3a4c 2cbd b14a 273d b217 973c 9123 70bd
000003b0: 7d56 e73c 9ab2 b0bc f406 db3c 408a 4fbb
000003c0: 710e 2abd 6858 13bd cf07 71bd d9b7 1e3d
000003d0: c8ec 38bc 1192 6f3c 20e5 93bc 6acf 2e3d
000003e0: 0f6c 4bbc 6061 8a3c 2d96 b03c f3d4 b33c
000003f0: 2c8d 3b3c 845f 95bc 85ef 2dbc 7138 963c
0.033505894 -0.010272504 0.03972597 -0.05035045 -0.013812571 0.04568096 0.039123587 0.009558607
-0.05096718 0.013847062 0.00045393666 0.012686838 0.032682158 -0.00069709274 -0.052788425 0.017797494
0.03974573 0.039501023 -0.034572322 -0.024220273 0.033602305 0.052267015 -0.032127753 -0.015507341
0.0051607387 0.04009747 0.05112104 0.003254469 0.01325909 0.031210946 -0.013701832 0.015126673
-0.047857653 0.043111477 -0.0053371466 0.024256572 0.011779357 0.027359452 0.023443867 -0.038060248
0.006852311 0.02169073 -0.005058264 0.021294221 0.015354565 0.010153129 0.0014148518 -0.06480384
0.0062700165 -0.051135983 0.033386044 0.015360303 -0.009772219 0.014121315 -0.04593129 0.0032535775
0.031229854 0.02220861 -0.059600186 -0.031831644 -0.05016686 -0.0133560635 -0.027039032 0.042090006
0.02818991 -0.020036843 -0.027984895 -0.018444328 -0.009861424 -0.04923623 0.0153622925 0.0022847096
-0.0065759933 -0.0060092914 0.039207157 -0.061889414 0.03993961 -0.017145488 -0.026902787 -0.06229926
0.0025919722 0.0070138145 -0.06446981 0.020291936 0.04179732 -0.06088409 -0.02312855 -0.036395203
-0.021509828 -0.039730724 -0.025528809 -0.066219375 0.0038026317 0.012934652 -0.017245226 -0.061314046
-0.04146926 -0.02941238 -0.033009663 0.036849774 0.027934855 0.017870646 -0.01550933 0.036676973
-0.020482555 -0.005098501 -0.01333846 -0.030894844 -0.05964727 0.044936024 -0.043343224 -0.0067208055
-0.027985275 -0.050386835 -0.06641878 -0.037587166 -0.0063205203 0.033342708 0.04498505 0.007016184
0.03114117 0.05221914 -0.040286854 -0.01703334 -0.046700906 -0.026202278 -0.038959093 0.03231237
0.042819172 0.039223347 -0.05027964 0.04448359 -0.019452937 0.01686393 -0.06516323 0.012029988
-0.043266587 -0.052721296 0.032259367 0.02216598 -0.020263981 0.044718005 -0.024959616 -0.023513464
-0.02414054 -0.03313758 -0.0023072502 -0.049814783 0.019529223 0.029024424 -0.041871242 0.006218464
0.022343816 -0.005589 -0.014162625 -0.055754315 0.021002732 -0.035328615 0.051413625 -0.06112998
-0.012449494 0.019094333 -0.023860542 0.04727039 0.007304722 0.034968197 0.01618488 0.0006112897
-0.060917534 0.0016640911 -0.0375378 -0.040798344 -0.03912171 -0.01475858 0.015059705 0.043377437
-0.043420136 0.029924044 -0.043807644 0.011811017 -0.012797119 0.03905164 -0.011657682 -0.03053649
0.020622607 -0.06367166 0.021569394 0.04284293 -0.021191526 -0.051265962 -0.020972693 -0.033493306
0.0032855745 -0.051322132 0.024721019 -0.0024897128 -0.041268468 -0.060802504 -0.0028739027 -0.014729194
0.038610682 0.015632052 -0.05782738 -0.023756517 -0.067127496 0.012588287 0.013827658 -0.06284308
-0.058124844 -0.01319161 0.018182257 0.023802578 -0.04238586 -0.01752576 -0.039236177 0.02612356
-0.023931343 -0.06313675 -0.001424741 -0.01500366 0.020326167 -0.0623788 0.030895088 0.021125488
-0.02608677 0.02162924 0.020858426 -0.058190156 0.022244465 0.0033168092 0.022609385 -0.03156724
-0.042064883 0.040842716 0.018443916 -0.05862767 0.028239483 -0.021569539 0.026736714 -0.0031668097
-0.04151768 -0.035972983 -0.058845337 0.03874955 -0.011286922 0.014622227 -0.018053591 0.042678274
-0.0124159 0.016892135 0.021555984 0.021952128 0.011447232 -0.018234022 -0.010616188 0.01833746

arith.constant5 f4 [64, 3, 3, 32]
00000000: 2eb5 69bc 6f93 653d 71c6 f5bb c9e9 fa3c
00000010: 72db 1ebd 7270 553d 0abc 7cbd 6a65 1dbd
00000020: 1f5c 9b3c 5067 253a aa21 a23d c150 1d3c
00000030: f593 8c3d f831 70bd c9ce 3b3c 4a60 843d
00000040: 85a4 ddbd d16c 59bd 6ddd 93bd 3d74 e3bc
00000050: 4de7 20bd 6c5f 73bd de31 34bd 5653 3abd
00000060: 9a74 623d 7208 5d3d 7379 dabc 211b b1bc
00000070: 6db7 84bc 56aa 103d f5ca b7bb 24f4 aabd
00000080: 1d6c 6a3d 8876 033d a071 62bd b612 053d
00000090: 788f 3cbd 20b1 b7bc f065 63bd 2473 483d
000000a0: be23 d1bd 14aa d43d da63 60bd c3df c5bc
000000b0: 0534 183c 067f 3c3d ec3d 943d 8cb9 e3bb
000000c0: 8419 f2bd 67f7 813d ba93 da3c c2ae 053d
000000d0: 0218 cebc 1bfb 013c 667d 3d3d 59a6 e1bc
000000e0: 9ffa bc3d f8a7 2ebd f5a5 243d 2077 193d
000000f0: 3abd a33d c949 873c 3828 913d 2436 7b3d
00000100: 7a88 de3c 7752 7e3d cda4 c9bc 9bd5 aebc
00000110: c114 a3bc ab0c 083b 6c79 44bc 86c1 f4bc
00000120: 169a a8bc 6b53 28bd fece 64bd 6f4d 73bd
00000130: d77d 5ebd 5616 dfbc 8602 b2bd f618 a5bd
00000140: 979d 2bbd d54a c03c c83e bc3b 4f10 87bd
00000150: fea3 543d c330 80bb ff34 91bd 7268 35bc
00000160: f991 26bd 7394 85bd 7d56 a6bd 4035 b7bc
00000170: 8cbc 623c 5674 9ebd f27f 17bd ee7f 3cbd
00000180: d86a 463d 5d5e c93d 5744 ae3d 486a 4abc
00000190: bcef f7b9 298d 99bd 5521 cfbc 8ba1 a5bd
000001a0: f4bf 8abd 0ce3 933c 491a 98bd b545 abbd
000001b0: 3e12 ffbb 3386 ffbb b129 663d f8f0 91bd
000001c0: 9722 85bd 08d6 673d a683 17bc ff24 89bd
000001d0: ab16 6f3d 4126 9b3c 5cc5 b63a 56bd 7d3d
000001e0: 7066 0abd 5ff6 eabb 5715 133a a4a0 493d
000001f0: 80e8 7b3d f3e4 d43c 2a55 07bd 9dd4 4abd
00000200: d277 8f3d 6b67 353d be8d a93c dd7f 473d
00000210: 319b b5bc 822d b4bd 9216 c43b 4194 213c
00000220: 807f 1bbc 708d b63d 2f14 7ebd 80ac 51bd
00000230: ac55 d93b 9328 d3bd 47d9 c7bd d9d6 5ebd
00000240: ebec 6c3d 145c 1abd 690e 843d 0858 e0bc
00000250: d303 bf3d 148d c93d 7165 333d 5f2d 783c
00000260: 7179 a9bc 45b9 923d 4933 2a3d 0ebb 3e3b
00000270: efdd c13d 8333 cfbc 3f6c babc 9b4d 80bc
00000280: d4bc 53bb 5d13 8fbd 1d14 45bd 7b23 cdbd
00000290: bb0c 35bd 4ac0 81bd db4d 4e3c 23a3 95bd
000002a0: 48b3 5d3b ee1e 2fbc 69b6 69bd 293d a8bd
000002b0: 8bf4 233d e271 cbbc 3617 b7bd a68a 6bbc
000002c0: 2cb9 7cbc 17f4 a83b f9ab 64bd ca96 cabb
000002d0: db61 c03c 0579 96bb 9790 b5bc 5598 92bd
000002e0: 2e00 1b3c 382d 8dbc f7aa d1bc c89a 6e3d
000002f0: 0bd5 15bd 17be 67bd b738 b63d 3d8e 903d
00000300: 086b c5bd dec0 c43b 13a7 b63d f40f 8fbd
00000310: f73b 26bd 18cd f3bd 6b6f b4bd 00a6 b9bd
00000320: 015a 883b 8a5b a33d e7b2 583d b1a0 993c
00000330: 8aba e0bd bf8b 58bb 995e 9c3b 1943 bdbc
00000340: 2a6e c7bd 1320 7bbd 3939 0c3d 4627 77bd
00000350: 74da c0bc 4812 8abc 8a51 9d3d 3dbd 533d
00000360: 08cf f7bc f5fa c33d ebbd c3bc 84d3 bdbc
00000370: 3f32 7b3d 400f 4bbd ccb5 8dbc 6cf5 acbd
00000380: daf0 83bd 0cf7 0ebd 5eb1 b0bb b63f d83c
00000390: 756b 83bd 58cd 48bd 3009 9d3c a2b0 283b
000003a0: a5c8 a9bd 070c c33d 593a 7fbc 599c 7f3c
000003b0: 9410 ae3c 41dc 203d 5e17 b6bd 8d9c 233d
000003c0: 6f3e 8bbd ba47 2b3d 0f1b 4d3c 0bc0 adbc
000003d0: f46f b2bc 733b 863c 3385 4d3d da67 1d3c
000003e0: 2bf1 403d 693e a4bc 803e 75bd a180 cb3c
000003f0: b546 2cbd e7b2 e33c 9336 743d a1bd 9abd
-0.014264388 0.056048807 -0.0075004627 0.030629056 -0.038783498 0.05210919 -0.061702766 -0.038426794
0.018964825 0.0006309645 0.07916577 0.009601773 0.06864158 -0.058641404 0.011462876 0.06463678
-0.10822395 -0.05308229 -0.07219968 -0.027765388 -0.039283086 -0.059417173 -0.04399287 -0.04548963
0.05528698 0.053963132 -0.02666924 -0.021619381 -0.016200745 0.035318695 -0.005608911 -0.083473474
0.05723201 0.032095462 -0.055284142 0.032488547 -0.04603526 -0.022423327 -0.055517137 0.04893793
-0.102118954 0.10384002 -0.054782726 -0.02415455 0.009289746 0.046019576 0.07238373 -0.006949609
-0.11821273 0.063460164 0.02668177 0.032637365 -0.025157932 0.007933403 0.046262167 -0.027545141
0.0922749 -0.042640656 0.04019733 0.037467122 0.079950765 0.016514676 0.07087749 0.06133093
0.027164686 0.062090363 -0.024614716 -0.02134209 -0.019907357 0.0020759504 -0.01199184 -0.029877435
-0.020581286 -0.04109518 -0.055861466 -0.05940002 -0.05431923 -0.02723233 -0.086918876 -0.080614015
-0.041898336 0.023473183 0.005744789 -0.065949075 0.051914208 -0.003912063 -0.07090186 -0.011072265
-0.040666554 -0.06522455 -0.08121965 -0.022364259 0.013838898 -0.07737033 -0.036987253 -0.04602044
0.048441738 0.098324515 0.085091285 -0.012354441 -0.00047290127 -0.07497627 -0.025284449 -0.080874525
-0.067748934 0.0180526 -0.074268885 -0.08362905 -0.007784157 -0.00779798 0.056192104 -0.07126039
-0.06500738 0.0566006 -0.009247696 -0.066965096 0.058371227 0.01893914 0.0013944316 0.061948143
-0.0337891 -0.007170483 0.0005610785 0.049225464 0.061501026 0.025988078 -0.033040203 -0.04951917
0.07005276 0.04428808 0.02069747 0.048705924 -0.022168728 -0.087977424 0.005984136 0.009862007
-0.009490848 0.08913696 -0.062030967 -0.0511899 0.0066325273 -0.10310473 -0.09758239 -0.054404113
0.05784313 -0.03768547 0.06448061 -0.027385727 0.09326901 0.09841362 0.043797914 0.015147536
-0.02068779 0.071642436 0.041552816 0.0029103193 0.094661586 -0.025293117 -0.022756694 -0.015662005
-0.0032308595 -0.06986115 -0.048114885 -0.10016533 -0.044201594 -0.06335504 0.012591804 -0.073065065
0.0033828784 -0.010688527 -0.057058726 -0.082147904 0.040028136 -0.024834577 -0.08939974 -0.014376318
-0.015425008 0.005156051 -0.05582807 -0.0061825262 0.023484161 -0.0045920634 -0.022163672 -0.07157961
0.009460492 -0.017233476 -0.025594218 0.05825308 -0.036580127 -0.05657777 0.08897536 0.0705838
-0.09639555 0.006004437 0.08918586 -0.06985465 -0.04058453 -0.11904353 -0.08810314 -0.09064865
0.00416112 0.07976444 0.05290499 0.018753381 -0.109730795 -0.003304228 0.004772019 -0.023103284
-0.09737809 -0.061309885 0.03423426 -0.06034019 -0.023541667 -0.01685442 0.07681568 0.051694144
-0.030250087 0.09569351 -0.02389427 -0.023172148 0.061327215 -0.04957509 -0.017298602 -0.08445248
-0.06442423 -0.03490357 -0.0053922376 0.026397567 -0.0641698 -0.049023956 0.01916942 0.0025740047
-0.08290223 0.095237784 -0.015577876 0.015601241 0.02124814 0.03927255 -0.08891176 0.03994422
-0.06799018 0.04181645 0.012518658 -0.021209737 -0.021781899 0.01638577 0.050175857 0.00960728
0.047104996 -0.02004929 -0.059874058 0.024841608 -0.04205962 0.027795268 0.05962236 -0.075557

arith.constant6 f4 [4, 64]
00000000: 739d 83be 8dba 59bc 94ff 553e 06f7 c2bd
00000010: 7ba0 d03b bedb 82be f8dc 3e3e 9726 2dbd
00000020: 048e 923c 87c3 363e 36cf 363e 4409 863e
00000030: da34 8abe b181 143e a0fc 743e 4df8 0c3e
00000040: 52cd d0bd d24f cf3d 70bd 953d 01ca 85be
00000050: 5d15 24be cd03 46be 048e 7bbe 35ae eb3d
00000060: 81b4 143d cf90 ccbd a4d5 7d3e 5ecb 4b3c
00000070: 209b e73d 2e43 be3d f2d1 aabd 6f57 863e
00000080: f150 1f3d 4906 313e 1407 8c3e 53be 87be
00000090: 6ac3 23be d819 39be a4bb 893e 83c8 e53d
000000a0: 5967 1dbe 8cb3 503e fbf6 d63d 0571 0a3e
000000b0: 46bf 6b3e 75f1 423d 8fca c4bd 92fe 4bbe
000000c0: 66a9 3a3b dc18 1bbe 8956 eabd ca99 e83c
000000d0: c4f7 233e 39b7 63be b34a 353e 2d86 803e
000000e0: 7567 053e 4811 68be b6f1 4dbe 0c6e c33d
000000f0: 8200 7bbe 584b 49bc 831b 91bd ef62 5e3e
00000100: e85b c53d 3bb8 853d 2420 413e 7d50 843d
00000110: c3df fc3d c7a4 11be fbcd 733e 13f6 1f3e
00000120: 7f60 963d d53a 343d e08f b5bc 42da 8bbe
00000130: 196b 023c ce4a 8dbe 57d1 9b3d dbde 8dbc
00000140: ce36 26be fa35 0d3e 6c43 6abe 8eba df3d
00000150: 12cc 623e 8585 02be bfa8 80be d719 febd
00000160: e16c 583b 0d58 1b3e 4c7f b7bd f315 443e
00000170: 128a 1bbe 3c3b 29be 0a41 2f3d 0d43 5abe
00000180: a55c 813e e1eb 163e 26a8 2c3d ad63 8fbd
00000190: 5cd7 413e ebc7 203e 4dc5 c4bd 3391 443e
000001a0: 050d 70be 5f3e 7fbd ba6d 1cbe 6165 613e
000001b0: 1834 45be 1825 933e 8943 5ebe 2070 0a3e
000001c0: 1e7b 86be 29d9 b43d 4e41 8b3e 7f38 01bd
000001d0: fb57 2ebe 5752 ce3d e882 73be 1bde 543e
000001e0: 0dff 9b3d 3f33 4d3e 8939 273e 5048 d7ba
000001f0: 4f47 f8bb b9d5 8ebd cdda 173e 48ff 14be
00000200: a79d 20be 9602 513e 54be aaba 7cfc ab3d
00000210: 21a2 66be beac 623e 5d7f 23be 6e2e 7cbe
00000220: b3ba 5dbe 86c9 e9bd 1b6d 8abe e658 2abe
00000230: 8052 30be 84e4 8d3e a782 d0bc f5ff 033e
00000240: 9dcb 99be b85e 733e d902 cd3d 452a 8ebe
00000250: 1363 833e 4afc a83d ef83 8fbe 4c81 aa3d
00000260: c991 993d 0ac3 5d3e ebc6 19be a016 c3bd
00000270: 1f18 0b3e 6b0e b2be 7ffe fcbd 9de6 84be
00000280: 7446 073e 560b 9bbe 67e8 93be 04c7 3cbe
00000290: b5d9 47be 60ea 473e 2a2e 333e 74b9 75be
000002a0: e27d 86be e155 0e3e b810 793e a2ac 973d
000002b0: 7ea2 4e3e ae07 383d cdd9 4abe a564 4f3e
000002c0: 31e0 4bbe 81c1 3ebe 2c4b a1bd ce0e 163e
000002d0: 7bf8 5fbe ecdf 553e b8b9 3b3e 2511 2b3e
000002e0: 72dc fa3b 9711 493d b66e f6bd 5993 12bc
000002f0: 10fe 88be 5af5 f0bd f5f1 52be 2164 8c3e
00000300: 5975 adbd daae 31be 4114 70be 6ab2 843d
00000310: 6efe 233e 0ed4 87be a990 683e 1bca fb3d
00000320: f03c f93c b8d0 a9be 0afb 4fbe 92ef ae3d
00000330: 6298 e93d ab76 c13d 70ae 55be 9fb6 61be
00000340: d821 ffbd b327 043c ebc7 10be e441 6b3d
00000350: 1281 0abd 4192 af3d edbb 583e fb17 323e
00000360: 0397 9cbe 0e31 a4be f142 33be a951 0e3e
00000370: 3e74 83be a7e9 e4bd 0fcd 55be 139a eebd
00000380: 5085 ef3d a3b8 3a3e 8f5a 5fbe 4a67 243d
00000390: 0d63 0abe 36fa 1cbe ff5a 3e3d 31bd 8a3a
000003a0: 9b81 dfbc c455 f93d 0918 a93d 3ec1 d43d
000003b0: 381b 393d 22d6 8fbe 1416 a6bc d948 3cbe
000003c0: f334 b4be ebfa 853e d7ce 7ebe 6c98 99bc
000003d0: 881e 01be 77b8 2a3e 0efb 563e e7ee fcbc
000003e0: 9778 c8bd 5d9d 4b3e 1597 07be e2fc de3d
000003f0: c322 543e 39c4 793e 0f17 543e 353e 66be
-0.25706062 -0.013289106 0.20898277 -0.09519772 0.006366787 -0.25558275 0.1863898 -0.04227313
0.017889984 0.17848025 0.17852482 0.26178944 -0.26993448 0.14502598 0.23924494 0.13766594
-0.10195412 0.101226464 0.07311523 -0.2613068 -0.16023774 -0.19337387 -0.24565893 0.11507837
0.036304954 -0.099885575 0.24788529 0.012438623 0.113088846 0.09290157 -0.08340825 0.26238582
0.03889555 0.17287554 0.2734915 -0.26512393 -0.15992513 -0.18076265 0.2690097 0.11219885
-0.15371455 0.20380992 0.104963265 0.13519676 0.23022184 0.047593553 -0.096089475 -0.1992133
0.0028482317 -0.15146202 -0.114422865 0.028393645 0.16012484 -0.22237863 0.17704277 0.25102368
0.13027747 -0.22662842 -0.20111737 0.09542474 -0.24511912 -0.01228603 -0.070853256 0.21717428
0.0963667 0.0652928 0.18859917 0.064606644 0.12347367 -0.14223014 0.23809044 0.15621214
0.07342624 0.04400142 -0.022163332 -0.27314955 0.007960104 -0.27596134 0.07608288 -0.01731818
-0.16231844 0.13790122 -0.22877282 0.10924254 0.22148159 -0.12746246 -0.25128743 -0.12407272
0.0033023881 0.15170307 -0.08959827 0.19148998 -0.15189388 -0.16526502 0.042786635 -0.2131464
0.25265995 0.14738418 0.042152546 -0.070014335 0.1892981 0.15701263 -0.09607945 0.19196014
-0.23442467 -0.06231534 -0.15276232 0.22011329 -0.19258153 0.28739238 -0.2170545 0.13519335
-0.26265806 0.088304825 0.2719826 -0.03154802 -0.1702575 0.10074299 -0.23780406 0.20787852
0.076170065 0.2003908 0.16330542 -0.0016424749 -0.00757686 -0.06974358 0.1482956 -0.14550507
-0.1568514 0.20411143 -0.0013026693 0.08397767 -0.22522785 0.22136208 -0.15966554 -0.24627087
-0.21653251 -0.11415391 -0.27036366 -0.16635475 -0.17218971 0.27713406 -0.025452925 0.12890609
-0.30038157 0.23766601 0.10010309 -0.27766624 0.25661525 0.08251245 -0.28030345 0.08325443
0.074985094 0.21656433 -0.15017287 -0.095258 0.1358342 -0.34776625 -0.12353229 -0.25957194
0.1321047 -0.30282086 -0.28888246 -0.18435293 -0.19516642 0.19523 0.17498079 -0.23996526
-0.26267916 0.13899948 0.24322784 0.07405974 0.20179173 0.0449292 -0.19809647 0.20253237
-0.19909741 -0.18628503 -0.07875666 0.14654085 -0.21872132 0.208862 0.18332565 0.16705759
0.0076556737 0.04908904 -0.12032835 -0.008946263 -0.26756334 -0.11765547 -0.20600112 0.27420142
-0.08469648 -0.17351857 -0.23445226 0.06479342 0.16015026 -0.26528972 0.22711433 0.12294408
0.030424565 -0.33167052 -0.20310608 0.08541788 0.11406018 0.09446462 -0.20867324 -0.2204232
-0.12457627 0.008066106 -0.14138763 0.057435885 -0.033814497 0.085728176 0.21165438 0.1739196
-0.30583963 -0.32068676 -0.17506005 0.13898338 -0.25674623 -0.11177378 -0.20879005 -0.11650481
0.11695349 0.18234496 -0.21811889 0.040137567 -0.13514347 -0.15329823 0.0464735 0.0010584948
-0.02728348 0.121745616 0.082565375 0.103884205 0.045191973 -0.28093058 -0.0202742 -0.18387164
-0.35196647 0.26167998 -0.2488359 -0.018749438 -0.12609303 0.1667193 0.20994207 -0.030875636
-0.09788626 0.19884248 -0.13241227 0.10888077 0.20716386 0.24391259 0.20711921 -0.22484668

arith.constant7 f4 [64, 128]
00000000: 50d9 75bd 5bf3 263e b460 14bd dae0 9d3d
00000010: 01b5 8fbd 5062 60bd 155b 933d 5769 90bd
00000020: d682 e8bd 45c4 17be f8af c83d 3a6a c03d
00000030: def9 293e c448 01be f32b 10bc c959 ba3d
00000040: 6e2b 3d3d 3a16 88bb 2797 c7bd 2d83 263e
00000050: 11a0 93bd fbb0 fbbd ad8b 3dbd 6201 c8bd
00000060: 03f5 423d 5f87 d4bc 85f2 24bd 88b3 ed3d
00000070: f4e6 243e a52d 243c e219 103e 4fb2 e93d
00000080: e1ee 1ebe 8dd5 353e 924f 77bd 7dd7 9ebc
00000090: e922 a6bd 0985 15be cc89 50bd 9a55 dbbd
000000a0: 1d8a babd 5158 f33d e063 b53d cca5 a1bb
000000b0: 314c 68bb 7f19 103e b3f4 06be 4176 283e
000000c0: da6f 0ebe 445b 143b e2ac 3f3d 9b4d 233e
000000d0: 666b a73d 1a30 543c 0e93 6cbd d136 de3d
000000e0: 8070 a43d ba77 1b3d 4e2d babd 46b4 ca3d
000000f0: bb75 05be 5bb3 893c f961 f7bd 7493 613d
00000100: 0398 073d db14 07be ea05 14be f012 25be
00000110: beba 1f3e 8f58 18be 0eef 75bd 61e0 233d
00000120: a5ef a63d a987 efbc 4f72 bebd a23b a93d
00000130: 4eba 50bc 176d a1bd d154 28be 90a1 06bd
00000140: 73d9 1b3e ea2b 193e 03c2 17be 6e2f b33d
00000150: 5f02 823d 90d0 1a3e 1cea 11be cb1e 95bc
00000160: 7b50 f6bd a555 913d 481f 933d 2889 c03d
00000170: 9eeb 993d a0f7 44bd 1bb1 1e3e d452 f23d
00000180: 37df ae3d 8a93 343e a817 0abe f2e1 0abe
00000190: 2ecc 343e 7c89 be3c 4f61 383d 740a f8bd
000001a0: 06d0 1c3d 3b1e bf3c 05a6 cdbc dac8 d93c
000001b0: 9842 c03d 55e4 e4bd 3145 f5bd b965 02be
000001c0: cad0 e33c 941c 873b dc83 2dbe f0e9 b9bd
000001d0: ba77 cdbd d963 0dbe 4bb1 2abd fb88 51bd
000001e0: d0eb f83d 4658 06be 2fab 233e 7eff 7c3c
000001f0: 0fe9 2cbd a827 adbd 745d 25be cf06 16bd
00000200: 0999 85bc b0db da3d db8b c13d 49bc f6bc
00000210: 450d bebd f5d7 3dbe aa85 f3bd 31f1 233d
00000220: fa67 73bb dfc5 2abe 211c 35be fca5 cebd
00000230: 7c6c f43d a46a 3dbe b441 aa39 d5a8 20bd
00000240: 6497 1c3e 44fd acbb 4c33 013e 8e3e 1f3e
00000250: 3648 b7bd 1ad2 17be 1940 803d 1022 cf3d
00000260: ad67 31bd 7030 0f3d 8ee5 823c 6133 163e
00000270: 63f6 00bd fac1 c63c 60d9 a23d b4bb 583d
00000280: 2d00 ff3b a6a3 203e efee 933d a2cf d2bc
00000290: 8792 f2bd f0c7 293e 49d8 823d 4552 f9bd
000002a0: 8b05 803d 178f 083d 15ee 9ebd 0733 1b3e
000002b0: 0f0b c2bd 2811 623d 5f93 8a3d e66d 5c3d
000002c0: 5558 13be 359e 8bbc 6ffc 6a3d 6e2e 323a
000002d0: 90dc 46bd 3132 dcbc 92d8 be3b fe7a 1bbe
000002e0: 2412 b03d 0138 0a3e ad88 15bd 8039 fabd
000002f0: b84b e23d 42dc f0bd 6c1d 573c 6f57 2e3e
00000300: bfd6 a43c e8ac dabd dcdd 1bbe f06d 33bd
00000310: d4c7 dc3d 2c9a f8bd 241b 393c 7185 27be
00000320: d968 d1bd 0f18 fdbd a748 ec3d bdb7 d2bd
00000330: 13fc 72bd b8b1 d5bb 3c2f 16be 3a28 453d
00000340: 2ab5 363e 8077 28bd 4162 143e acee 0bbe
00000350: d16e dd3d a3f8 cc3d d2a2 d43d 267d 12be
00000360: 4e05 0dbe dd0d 173e 7f58 033e fc24 83bd
00000370: f450 95bd 26aa 4a3d ad32 e03d 818e 25be
00000380: b36d d73d f157 a4bd 0da4 e93d 8c37 963d
00000390: 93da e0bd 66e8 263e ba73 093d 76e7 a7bc
000003a0: fc8a 0ebe 60cb 12be 0650 e73b a342 91bd
000003b0: c190 15be 0907 113e e681 f3bc a469 e83d
000003c0: 2ade 35bd 103c c13d 910f 0b3e b999 3abe
000003d0: 705b d8bd db5a 28be cd63 11be bf18 c63d
000003e0: eef6 6abd 039c e63d 1492 943d cfb3 b43d
000003f0: 74a8 c43d 912a ad3d 8b18 d03d 948e 0b3e
-0.0600217 0.1630377 -0.036225036 0.07708903 -0.07016946 -0.054781258 0.07195107 -0.07051342
-0.1135308 -0.14820965 0.097991884 0.09395261 0.16599223 -0.12625414 -0.008799541 0.090991564
0.046183996 -0.0041530402 -0.09745627 0.16260977 -0.072082646 -0.12289616 -0.046275783 -0.09765889
0.047596943 -0.025943456 -0.040270347 0.116065085 0.16103727 0.010020648 0.14072374 0.11410963
-0.15520813 0.17757244 -0.06037862 -0.019389862 -0.08112127 -0.1460153 -0.050912663 -0.107096866
-0.09108374 0.118820794 0.0885694 -0.0049330946 -0.0035445804 0.14072226 -0.13179283 0.1645136
-0.13909855 0.0022637406 0.046795733 0.15947573 0.081747815 0.012950921 -0.05775743 0.10850299
0.0802927 0.037955977 -0.090906724 0.09897666 -0.13033192 0.016809156 -0.12079234 0.055072263
0.033103954 -0.1319155 -0.14455381 -0.16120505 0.1559858 -0.14877532 -0.060042433 0.040008906
0.08151177 -0.029239492 -0.092991464 0.08263327 -0.012739731 -0.07882135 -0.16438605 -0.03286892
0.15219669 0.14958158 -0.14820103 0.08749281 0.063481085 0.15118623 -0.14249462 -0.01820316
-0.12027069 0.070964135 0.07183701 0.094011605 0.075156435 -0.048087716 0.15497248 0.118322045
0.085386686 0.17634407 -0.13485587 -0.13562754 0.17656013 0.023258917 0.045014676 -0.12111369
0.038284324 0.023329845 -0.025103578 0.026585031 0.09387702 -0.111763634 -0.11976088 -0.12734117
0.02780952 0.00412328 -0.16944832 -0.09077823 -0.10032602 -0.1380762 -0.041672986 -0.051156025
0.12154353 -0.13119611 0.1598327 0.015441773 -0.04221445 -0.084548295 -0.16148931 -0.036627587
-0.016308324 0.10686433 0.094505034 -0.030119078 -0.09279875 -0.18539412 -0.11890729 0.04002494
-0.0037140832 -0.16677044 -0.17686512 -0.10090253 0.11934754 -0.18497711 0.0003247388 -0.03922351
0.15292126 -0.005279215 0.12617224 0.15551206 -0.0894932 -0.14826241 0.06262226 0.10113919
-0.043311764 0.034958303 0.0159786 0.14668037 -0.031484973 0.024262417 0.07951617 0.052913383
0.0077820034 0.15687427 0.07223307 -0.025733773 -0.11844354 0.16580176 0.06388909 -0.12173895
0.06251057 0.033339586 -0.07760254 0.15156184 -0.094747655 0.055192143 0.0676639 0.053815745
-0.14389165 -0.017043212 0.057369646 0.00067970797 -0.04855019 -0.026879402 0.005824157 -0.15183637
0.0859721 0.13497926 -0.036507297 -0.122179985 0.110495985 -0.11760761 0.013129573 0.17025541
0.02012193 -0.106775105 -0.15221351 -0.043806016 0.10780302 -0.12138781 0.011297975 -0.16359498
-0.10225076 -0.123581044 0.11537295 -0.102889515 -0.059322428 -0.00652143 -0.14666456 0.048134066
0.17842546 -0.04112959 0.14490606 -0.13665265 0.10812152 0.10008361 0.10382618 -0.14305553
-0.13771555 0.14751382 0.12826727 -0.064035386 -0.07290831 0.049478672 0.10947166 -0.16167642
0.1051897 -0.08024586 0.11408243 0.073348135 -0.1097919 0.1629959 0.03355763 -0.020496111
-0.13920206 -0.14335394 0.0070591 -0.07092788 -0.14606 0.1416284 -0.029725026 0.11348274
-0.044401325 0.09435284 0.13580157 -0.18222703 -0.10564315 -0.16440909 -0.14198227 0.09672689
-0.057364397 0.112602256 0.07254425 0.08823358 0.096024424 0.084553845 0.10160931 0.13628608

sequential_1/conv2d_1/convolution f4 [32, 3, 3, 3]
00000000: 2ba2 61bc aaa6 a13d e2c3 153a 10ad 193c
00000010: d6f2 0f3d 8653 bc3d d737 a7bc 32d1 313d
00000020: df0e a2bd 725a 6dbc 7e83 d83d 49c2 a83d
00000030: b737 e03d c306 d03d 44ec e3bd 4943 6fbc
00000040: 5425 f13c b47c df3d 849d f63d 3565 463c
00000050: ce60 debd bded 53bd cbeb b3bd 7737 8a3b
00000060: 8f31 13bc 2873 bc3d 50ef 1ebd f0bb d4bd
00000070: a923 11be 3f49 383d fec3 a4bd d7b3 f0bd
00000080: 0701 8a3d e73f a4bc 06cd 92bd 96e6 76bb
00000090: 2f91 4c3d c274 473d ba46 c23c d9b9 8e3d
000000a0: c5a2 6f3d 63a1 8cbd 3182 c2bc a4e3 383d
000000b0: d8b0 b73d 0ba4 233e 2342 0f3d 0c53 073e
000000c0: 9088 d9bd 69d1 bdbd 8b84 9bbd d16c 1e3e
000000d0: ecdd 663d ab38 cebc c61b f93d a7ff b33d
000000e0: b48d 0dbd 8361 81bd ec66 babd 0a28 dc3d
000000f0: fef1 e7bd c0de 9abd 453a 79bd b3d4 01bd
00000100: 27b2 023d 472b cfbd 34fd f0bd eaaf d4bd
00000110: d04a c03d caf7 7e3b c8f7 6fbd 3842 d53d
00000120: 766c f2bd 441e e03d ba10 4d3d 16ec 3a3d
00000130: 38d9 39bd 220d dbbd 5d0a 133e 2cec 6bbd
00000140: 3f3d b13d de49 babd e9e6 7f3d 23d3 c5bc
00000150: e50b 013e 04db 8b3d c6cb 41bd 663a a63d
00000160: 55c6 fd3d bf2a 9b3d bf5c 033e 0d45 9b3d
00000170: 8e53 d6bd 049c a23b 3a33 f13d 785e c93d
00000180: 64f3 8c3d a2c7 543d c6cc f73d 9e67 023e
00000190: bf03 c43d a833 3fbd 25e8 333d 1bff 3d3d
000001a0: 1c69 9c3d 450c bb3d d533 5d3d f87e afbd
000001b0: e2d2 80bd 8d14 003e 0c87 c1bd d07d 9a3d
000001c0: a01c fb3d e91c c93b f95a 693d 06ef df3c
000001d0: c91b 81bb 3f3d 863c f646 39bd 7fec b6bc
000001e0: f7fd a4bc 0a3e 5ebd a4de 803c 34aa c93d
000001f0: b59a ed3d 331e 963b c27f b6bd 294a 833d
00000200: dc05 babd 243b f83c e90d 813d ecda db3d
00000210: 3966 2e3d 14d7 7d3b 6f3e 81bd f070 1bbd
00000220: 29ea 9cbc 4506 01be 8fcc fe3d a79a c8bb
00000230: 6c6c 053d 6694 b1bd d1aa 863d 2552 aabd
00000240: 2022 dcbd 6ee9 f23c 83c5 473d a742 54bd
00000250: d5fd 59bd e5e3 c93d 8809 b03d 311a eb3d
00000260: 2b28 50b9 7fde 2fbd 0e76 bd3d db2a febd
00000270: bbe2 133d 94e0 2b3c 685e 1abe 0528 043e
00000280: 55f8 933d 8501 2bbd 36fe 9d3c a44b 1bbd
00000290: 808e 3f3c d69a 65bd e167 dfbd 7d0c 38bd
000002a0: 8069 7c3d 6d76 e93d 3535 e6bd 3d61 e23d
000002b0: c772 62bc 6293 a83d e5ab 413d c9cb ad3d
000002c0: ddb5 963d 4dc3 4e3c 6ba3 0abe b463 14ba
000002d0: 0440 b9bd 72ed 05bc 55b0 b53d 9e04 8ebd
000002e0: a17e a1bd fb9b f03d f691 f43d 5411 843d
000002f0: dcc0 b73c a6ef 253d 7e64 bc3d a0e1 a2bd
00000300: ddb6 47bc a8bd 4abd ea0c e33d cdb0 d7bc
00000310: 8b9c f4bd 159c afbd 16c6 b0b9 6490 073e
00000320: 4772 29bd 2ee9 043e d953 ac3c 087e e5bd
00000330: 52ae 0a3e dcc1 f8bd 742d 003d db72 e03d
00000340: 9164 ccbd 6954 7fbd 6562 0b3e ae2a b83c
00000350: 822b ec3d 8118 023e 316e 04be 8b25 00bd
00000360: 7338 cd3d ef87 34bd 9ca1 a6bd c565 8f3d
00000370: bb74 3f3d d028 2abd 3479 23bd 31d6 e43d
00000380: 95d8 bcbd e7c7 05bd e83b e63c 3f33 09be
00000390: 7c06 a6bc 0915 903d 612a 933d 78c0 06be
000003a0: 12ff f23d 8baa 9a3d c61a 63bd cf18 dabd
000003b0: 7050 c5bd c8ed 21bc 2349 ed3a 4e31 b9bc
000003c0: fa2a c13d 94d9 663d 5994 b93d ceab 643d
000003d0: 98c0 bfbd 9f0e 3b3d d218 d7bd 5e64 f8bd
000003e0: f8ab ebbd 71b4 cd3d 3331 d2bd 6adf dabc
000003f0: c9d8 bcbd a1ae 85bc f3d9 c33d b428 41bd
-0.013771574 0.07893117 0.0005713088 0.00937964 0.035143696 0.09195618 -0.020412369 0.043412395
-0.07912993 -0.014486896 0.10571955 0.08240182 0.10948127 0.1015754 -0.111290485 -0.014603444
0.029436745 0.10912457 0.120417625 0.012109091 -0.10858308 -0.051740397 -0.08785208 0.0042180377
-0.008983984 0.09201652 -0.038802445 -0.10387409 -0.1417376 0.044991728 -0.08045195 -0.11753052
0.06738477 -0.020050002 -0.07168011 -0.003767406 0.049943145 0.048695333 0.023715366 0.069690414
0.05850484 -0.068667196 -0.02374372 0.04513897 0.08969277 0.15980546 0.034975182 0.13215274
-0.1062175 -0.092684574 -0.0759364 0.15471198 0.056363985 -0.025173506 0.121635005 0.08788996
-0.034558967 -0.06317427 -0.09101662 0.10749824 -0.11325453 -0.075620174 -0.060846586 -0.031696986
0.03190818 -0.101156764 -0.11767045 -0.103851154 0.09389269 0.0038905018 -0.058585912 0.10413021
-0.118370935 0.10943273 0.05006478 0.045635305 -0.04537317 -0.10695864 0.14359422 -0.057598278
0.0865426 -0.0909612 0.062476072 -0.02414853 0.12602194 0.06828883 -0.047313474 0.08116607
0.123913445 0.075765125 0.12828349 0.0758153 -0.104651555 0.004962446 0.11777349 0.098324716
0.068823606 0.051948197 0.12099604 0.1273484 0.09571027 -0.046680123 0.043922562 0.046385866
0.076372355 0.091331996 0.05400451 -0.08569139 -0.06290223 0.1250784 -0.09449586 0.07543528
0.12261319 0.0061374796 0.056971524 0.027335655 -0.00394008 0.016386626 -0.04523369 -0.022329567
-0.020140631 -0.054258384 0.015731163 0.09846917 0.11601774 0.0045812367 -0.089110866 0.06410629
-0.09083149 0.030301638 0.06301481 0.107351154 0.042577956 0.0038732933 -0.063107364 -0.037949502
-0.019154625 -0.12600048 0.1244136 -0.0061219516 0.032574102 -0.08670883 0.065755494 -0.08316449
-0.10748696 0.029652324 0.048772346 -0.051821377 -0.05322059 0.098579206 0.08595568 0.11479605
-0.0001985139 -0.0429368 0.09251033 -0.12410518 0.0361049 0.010490555 -0.15075076 0.12905891
0.072251 -0.041749496 0.019286256 -0.037913933 0.0116916895 -0.056055866 -0.10908485 -0.044933785
0.06162405 0.11399541 -0.11240617 0.11053703 -0.01382131 0.08231236 0.047283072 0.084861346
0.073589064 0.0126198055 -0.13538902 -0.0005660609 -0.09045413 -0.008174287 0.08871523 -0.069344744
-0.07885481 0.11748501 0.11941902 0.064486176 0.02243083 0.04051175 0.09198855 -0.07953191
-0.012189594 -0.049497277 0.110864475 -0.026329422 -0.11943921 -0.08574692 -0.00033716921 0.13238674
-0.04136875 0.12979576 0.021036075 -0.11205679 0.1354306 -0.12146351 0.031293347 0.10959407
-0.09980119 -0.06233636 0.13611753 0.022481289 0.11531736 0.1270466 -0.1293266 -0.031285804
0.100205325 -0.04407495 -0.08136293 0.07001833 0.046742182 -0.041542828 -0.03991051 0.11173666
-0.09220997 -0.032661345 0.028104737 -0.13398455 -0.020266764 0.07035262 0.071858175 -0.13159359
0.11865057 0.0755206 -0.055445455 -0.10649263 -0.09634483 -0.009883352 0.0018103461 -0.022606518
0.09432025 0.056359842 0.09061498 0.05582791 -0.09362906 0.04566824 -0.10502781 -0.121285185
-0.1150741 0.10044182 -0.1026329 -0.02671786 -0.09221036 -0.016318621 0.09563055 -0.04715796

sequential_1/conv2d_1/Relu;sequential_1/conv2d_1/BiasAdd;sequential_1/conv2d_1/convolution; f4 [32]
00000000: 9a1f 9b3b 15f4 2abb de28 8539 0393 10bb
00000010: 6c26 483b 0604 713c 4eb4 803b c82b 943a
00000020: 77a8 ca3b c142 663b 3f13 b1bc 92d7 4f3c
00000030: ec17 08bc 0a4e 86bc 8081 94bc ae82 fe3a
00000040: eedf ecba 57e2 b03b 303c 193b 626d 10bb
00000050: 0354 15bc 0c28 88bb 1b63 c4bb 5ba9 37bc
00000060: b2fd 5d3b 5d7c 25bc d95a 98bb 34c7 95bb
00000070: 16ae 5ebb e643 efba f2aa ecba b016 23bc
0.004733992 -0.0026085426 0.00025398185 -0.0022060282 0.003054048 0.014710432 0.003927744 0.0011304552
0.0061846334 0.0035135003 -0.021615623 0.012685673 -0.008306485 -0.016394634 -0.018128157 0.0019417608
-0.0018072107 0.0053980756 0.0023381822 -0.0022037853 -0.009114268 -0.0041551646 -0.0059932596 -0.011209811
0.0033873138 -0.010100451 -0.0046495018 -0.004570866 -0.0033978275 -0.0018254488 -0.0018056317 -0.00995414
